27793 1625
node_size:	 27793
rel_size:	 3250
triple_size:	 666281
loading raw data...
total ent num: 27793, rel num: 1624
94.56% entities have images,  follow_neirbor_img_num is 1462,  follow_all_img_num is 50
image feature shape: torch.Size([27793, 4096])
#left entity : 14951, #right entity: 12842
#left entity not in train set: 12382, #right entity not in train set: 10273
relation feature shape: torch.Size([27793, 1000])
attribute feature shape: torch.Size([27793, 1000])
Generating a dense adjacency matrix...
total params num 13325306
MyGram model details:
MultiModalEncoderMrFusion(
  (rel_fc): Linear(in_features=1000, out_features=300, bias=True)
  (att_fc): Linear(in_features=1000, out_features=300, bias=True)
  (img_fc): Linear(in_features=4096, out_features=300, bias=True)
  (dropout): Dropout(p=0.0, inplace=False)
  (ent_embedding): Embedding(27793, 300)
  (rel_embedding): Embedding(3250, 300)
  (rel_fc_dual): Linear(in_features=3250, out_features=300, bias=True)
  (e_encoder): RRGAT(
    (activation): Tanh()
    (attn_kernels): ParameterList(
        (0): Parameter containing: [torch.float32 of size 300x1 (cuda:0)]
        (1): Parameter containing: [torch.float32 of size 300x1 (cuda:0)]
    )
  )
  (r_encoder): RRGAT(
    (activation): Tanh()
    (attn_kernels): ParameterList(
        (0): Parameter containing: [torch.float32 of size 300x1 (cuda:0)]
        (1): Parameter containing: [torch.float32 of size 300x1 (cuda:0)]
    )
  )
  (fusion1): MFusion(
    (fusion_layer): ModuleList(
      (0-1): 2 x BertLayer(
        (attention): BertAttention(
          (self): BertSelfAttention(
            (query): Linear(in_features=300, out_features=300, bias=True)
            (key): Linear(in_features=300, out_features=300, bias=True)
            (value): Linear(in_features=300, out_features=300, bias=True)
            (dropout): Dropout(p=0.1, inplace=False)
          )
          (output): BertSelfOutput(
            (dense): Linear(in_features=300, out_features=300, bias=True)
            (LayerNorm): LayerNorm((300,), eps=1e-12, elementwise_affine=True)
            (dropout): Dropout(p=0.1, inplace=False)
          )
        )
        (intermediate): BertIntermediate(
          (dense): Linear(in_features=300, out_features=400, bias=True)
          (intermediate_act_fn): GELUActivation()
        )
        (output): BertOutput(
          (dense): Linear(in_features=400, out_features=300, bias=True)
          (LayerNorm): LayerNorm((300,), eps=1e-12, elementwise_affine=True)
          (dropout): Dropout(p=0.1, inplace=False)
        )
      )
    )
  )
  (MCD): MCD(
    (x_dropout): Dropout(p=0.0, inplace=False)
    (edge_dropout): Dropout(p=0.0, inplace=False)
    (z_dropout): Dropout(p=0.0, inplace=False)
  )
)
optimiser details:
AdamW (
Parameter Group 0
    amsgrad: False
    betas: (0.9, 0.999)
    capturable: False
    differentiable: False
…
